…
emp': 0.09, 'lamda': 1, 'seed': 9, 'test_bs': 10, 'smooth': 'slide', 'kappa': 7, 'ckpt_path': './ckpt/ucf__8636.pkl', 'feat_dim': 1024, 'head_num': 1, 'hid_dim': 128, 'out_dim': 300, 'lr': 0.0005, 'dropout': 0.1, 'train_bs': 128, 'max_seqlen': 200, 'max_epoch': 50, 'workers': 8, 'save_dir': './ckpt/', 'logs_dir': './log_info.log'}
[2023-06-26 10:22:41,974][main.py][line:113][INFO] total params:1.2091M
[2023-06-26 10:22:41,975][main.py][line:116][INFO] Training Mode
[2023-06-26 10:22:41,976][main.py][line:53][INFO] Model:XModel(
  (self_attention): XEncoder(
    (self_attn): TCA(
      (q): Linear(in_features=1024, out_features=128, bias=True)
      (k): Linear(in_features=1024, out_features=128, bias=True)
      (v): Linear(in_features=1024, out_features=128, bias=True)
      (o): Linear(in_features=128, out_features=1024, bias=True)
      (act): Softmax(dim=-1)
    )
    (linear1): Conv1d(1024, 512, kernel_size=(1,), stride=(1,))
    (linear2): Conv1d(512, 300, kernel_size=(1,), stride=(1,))
    (dropout1): Dropout(p=0.1, inplace=False)
    (dropout2): Dropout(p=0.1, inplace=False)
    (norm): LayerNorm((1024,), eps=1e-05, elementwise_affine=True)
    (loc_adj): DistanceAdj()
  )
  (classifier): Conv1d(300, 1, kernel_size=(9,), stride=(1,))
)

[2023-06-26 10:22:41,976][main.py][line:54][INFO] Optimizer:Adam (
Parameter Group 0
    amsgrad: False
    betas: (0.9, 0.999)
    eps: 1e-08
    initial_lr: 0.0005
    lr: 0.0005
    weight_decay: 0
)

[2023-06-26 10:23:04,467][main.py][line:57][INFO] Random initialize AUC:0.5444 FAR:0.67905
[2023-06-26 10:28:20,970][main.py][line:74][INFO] [Epoch:1/50]: loss1:0.3674 loss2:1.0960 | AUC:0.8476 FAR:0.00341
…
'temp': 0.05, 'lamda': 1, 'seed': 4, 'test_bs': 5, 'smooth': 'fixed', 'kappa': 8, 'ckpt_path': './ckpt/xd__8526.pkl', 'feat_dim': 1024, 'head_num': 1, 'hid_dim': 128, 'out_dim': 300, 'lr': 0.0005, 'dropout': 0.1, 'train_bs': 128, 'max_seqlen': 200, 'max_epoch': 50, 'workers': 8, 'save_dir': './ckpt/', 'logs_dir': './log_info.log'}
[2023-06-26 12:59:05,198][main.py][line:113][INFO] total params:1.2073M
[2023-06-26 12:59:05,198][main.py][line:116][INFO] Training Mode
[2023-06-26 12:59:05,199][main.py][line:53][INFO] Model:XModel(
  (self_attention): XEncoder(
    (self_attn): TCA(
      (q): Linear(in_features=1024, out_features=128, bias=True)
      (k): Linear(in_features=1024, out_features=128, bias=True)
      (v): Linear(in_features=1024, out_features=128, bias=True)
      (o): Linear(in_features=128, out_features=1024, bias=True)
      (act): Softmax(dim=-1)
    )
    (linear1): Conv1d(1024, 512, kernel_size=(1,), stride=(1,))
    (linear2): Conv1d(512, 300, kernel_size=(1,), stride=(1,))
    (dropout1): Dropout(p=0.1, inplace=False)
    (dropout2): Dropout(p=0.1, inplace=False)
    (norm): LayerNorm((1024,), eps=1e-05, elementwise_affine=True)
    (loc_adj): DistanceAdj()
  )
  (classifier): Conv1d(300, 1, kernel_size=(3,), stride=(1,))
)

[2023-06-26 12:59:05,200][main.py][line:54][INFO] Optimizer:Adam (
Parameter Group 0
    amsgrad: False
    betas: (0.9, 0.999)
    eps: 1e-08
    initial_lr: 0.0005
    lr: 0.0005
    weight_decay: 0
)

[2023-06-26 12:59:18,902][main.py][line:57][INFO] Random initialize AP:0.2742 FAR:0.44700
[2023-06-26 13:01:57,379][main.py][line:74][INFO] [Epoch:1/50]: loss1:0.3384 loss2:0.5558 | AUC:0.7968 FAR:0.00456
…
